ng TensorFlow backend.
50000 train samples
10000 test samples
_________________________________________________________________
Layer (type)                 Output Shape              Param #   
=================================================================
conv2d_1 (Conv2D)            (None, 32, 32, 128)       3584      
_________________________________________________________________
activation_1 (Activation)    (None, 32, 32, 128)       0         
_________________________________________________________________
conv2d_2 (Conv2D)            (None, 30, 30, 128)       147584    
_________________________________________________________________
activation_2 (Activation)    (None, 30, 30, 128)       0         
_________________________________________________________________
max_pooling2d_1 (MaxPooling2 (None, 15, 15, 128)       0         
_________________________________________________________________
conv2d_3 (Conv2D)            (None, 15, 15, 256)       295168    
_________________________________________________________________
activation_3 (Activation)    (None, 15, 15, 256)       0         
_________________________________________________________________
conv2d_4 (Conv2D)            (None, 13, 13, 256)       590080    
_________________________________________________________________
activation_4 (Activation)    (None, 13, 13, 256)       0         
_________________________________________________________________
max_pooling2d_2 (MaxPooling2 (None, 6, 6, 256)         0         
_________________________________________________________________
dropout_1 (Dropout)          (None, 6, 6, 256)         0         
_________________________________________________________________
conv2d_5 (Conv2D)            (None, 6, 6, 512)         1180160   
_________________________________________________________________
activation_5 (Activation)    (None, 6, 6, 512)         0         
_________________________________________________________________
conv2d_6 (Conv2D)            (None, 4, 4, 512)         2359808   
_________________________________________________________________
activation_6 (Activation)    (None, 4, 4, 512)         0         
_________________________________________________________________
max_pooling2d_3 (MaxPooling2 (None, 2, 2, 512)         0         
_________________________________________________________________
dropout_2 (Dropout)          (None, 2, 2, 512)         0         
_________________________________________________________________
flatten_1 (Flatten)          (None, 2048)              0         
_________________________________________________________________
dense_1 (Dense)              (None, 1024)              2098176   
_________________________________________________________________
activation_7 (Activation)    (None, 1024)              0         
_________________________________________________________________
dropout_3 (Dropout)          (None, 1024)              0         
_________________________________________________________________
dense_2 (Dense)              (None, 100)               102500    
_________________________________________________________________
activation_8 (Activation)    (None, 100)               0         
=================================================================
Total params: 6,777,060
Trainable params: 6,777,060
Non-trainable params: 0
_________________________________________________________________
Epoch 1/200
1562/1562 [==============================] - 123s 79ms/step - loss: 3.9427 - acc: 0.1055 - val_loss: 3.3535 - val_acc: 0.2086
Epoch 2/200
1562/1562 [==============================] - 120s 77ms/step - loss: 3.4087 - acc: 0.1987 - val_loss: 2.9364 - val_acc: 0.2981
…
